archive/smnist/init_weights_smnist.pt (torch, 184339 bytes, 3 tensors)

0.weight f4 [128, 80]
0	0xbd3abd5f	-0.045590755
1	0x3b72b566	0.0037034391
2	0xbd637173	-0.055528115
3	0x3d2cb2ab	0.04216258
4	0xbdc31911	-0.095262654
5	0x3da7d8f7	0.0819568
6	0xbda66d53	-0.08126321
7	0xbdb60b1d	-0.088888384
8	0xbd90af70	-0.07064712
9	0x3d4f66ae	0.050635032
10	0xbd29352e	-0.04131048
11	0x3d2b5ea9	0.04183832
12	0xbdc2561f	-0.094890825
13	0xbd8aec6e	-0.06783377
14	0xbd2825a6	-0.04105153
15	0xbcb3fdbb	-0.021971574
16	0xbdaeace7	-0.08529072
17	0x3d95edfd	0.07320783
18	0xbcd7ff07	-0.026366724
19	0x3d12feca	0.035887517
20	0x3da1eac3	0.07906105
21	0x3caaa2ee	0.020829644
22	0x3cfa73a5	0.030572722
23	0x3ddd04be	0.1079192
24	0xbd4e89cc	-0.050424382
25	0x3d110e21	0.035413865
26	0xbd4bbf75	-0.049743135
27	0x3da3a2c0	0.079900265
28	0x3db6defd	0.089292504
29	0xbdd31b6a	-0.10307963
30	0x3dc3764f	0.0954405
31	0x3d5aad18	0.05338773
32	0x3d478edf	0.048720237
33	0x3d3c8670	0.046026647
34	0x3dbe5868	0.09294206
35	0xbc71de49	-0.01476247
36	0xbdc1a476	-0.094551966
37	0xbd036846	-0.032081865
38	0xbda14298	-0.0787403
39	0x3bf22fcb	0.0073909513
40	0xbcab0111	-0.020874532
41	0xbd75a2bf	-0.05996966
42	0xbc268c73	-0.010165322
43	0x3dd8ee23	0.10592296
44	0xbc107ba3	-0.00881854
45	0x3b68a336	0.0035497672
46	0xbc8ed7df	-0.01743692
47	0x3c8ffc20	0.017576277
48	0x3dcc04a6	0.09961824
49	0x3d8c03fd	0.06836698
50	0x3d228db0	0.039685905
51	0x3cc70887	0.024296058
52	0x3cd7f60e	0.026362445
53	0x3d30eb87	0.043193366
54	0xbc6cb5b9	-0.014447623
55	0xbdd4cf52	-0.10391106
56	0xbd8d9990	-0.06914055
57	0x3dc372ca	0.09543379
58	0x3bdafc03	0.006682874
59	0xbdb97c39	-0.09056897
60	0x3c907629	0.017634468
61	0x3dbd31b7	0.09237998
62	0xbdd86138	-0.10565418
63	0xbd9a2764	-0.075270444
64	0xbd36626a	-0.04452745
65	0x3b930bfb	0.004487512
66	0xbcd59d00	-0.02607584
67	0xbc494c16	-0.012286207
68	0xbddf394f	-0.108996026
69	0x3d567267	0.052355196
70	0x3dc8fad5	0.098134674
71	0x3d8bf512	0.06833853
72	0xbda224b9	-0.079171605
73	0xbdb89381	-0.09012509
74	0x3d3e29d7	0.04642662
75	0x3b248ea0	0.0025109425
76	0x3d3bb9fe	0.045831673
77	0xbddfbddc	-0.10924885
78	0xbbda6eeb	-0.0066660545
79	0x3da17b66	0.078848645
80	0x3d54725c	0.051866874
81	0x3b85c8bc	0.0040827673
82	0x3cb41503	0.021982675
83	0xbc2d6f08	-0.010585554
84	0xbd7bcb62	-0.061473258
85	0xbd2d0ec8	-0.042250425
86	0xbd8b70ac	-0.068086
87	0x3dbe2ff8	0.09286493
88	0x3d7c0081	0.061523918
89	0x3d202782	0.039100178
90	0xbdaf96bb	-0.085736714
91	0x3db0ae4c	0.086269945
92	0x3d0f95fb	0.035055142
93	0x3d9e670d	0.07734499
94	0xbd3426d5	-0.043982346
95	0x3cc22aa5	0.023701975
96	0x3ddf90c8	0.10916287
97	0x3d9a0562	0.07520558
98	0x3db7a2c9	0.08966596
99	0xbcc052dd	-0.023477012
100	0x3dae7317	0.085180454
101	0xbdb356dd	-0.08756802
102	0x3c1e6dea	0.00966976
103	0xbd80ecb1	-0.06295145
104	0xbcd599ac	-0.026074253
105	0xbcea8ed6	-0.028632563
106	0x3c090d79	0.008365029
107	0x3dd065d2	0.10175671
108	0x3d62b8d9	0.055352066
109	0xb9f850bb	-0.00047362395
110	0x3da28925	0.079363145
111	0xbd6aad67	-0.057294276
112	0x3d6c033e	0.05762028
113	0xbc29ddd2	-0.0103678275
114	0xbc9f601b	-0.019455006
115	0x3c56741c	0.013089206
116	0xbdaf6a6e	-0.08565222
117	0x3c53ad26	0.0129197
118	0x3d19faa6	0.037592553
119	0x3dc3c1b0	0.09558427
120	0xbd0e941b	-0.034809213
121	0x3d24df99	0.0402523
122	0x3de4dc94	0.111748844
123	0xbd4471e9	-0.047960196
124	0x3dd9a90c	0.10627946
125	0xbd635ded	-0.055509496
126	0x3d49dc50	0.049282372
127	0x3d336692	0.04379899
128	0x3cffd5b4	0.031229831
129	0x3db512a5	0.08841447
130	0xbd3915f5	-0.045186955
131	0x3cf0b6d9	0.029384064
132	0x3a247bd8	0.00062745577
133	0xbdac386b	-0.084091984
134	0xbcde6446	-0.027147423
135	0xbd98e9e8	-0.07466489
136	0x3d4a7bcd	0.049434472
137	0x3c24ab95	0.010050674
138	0x3c33734a	0.01095278
139	0xbd0aed79	-0.033917878
140	0x3a0cee82	0.00053761166
141	0xbd0e70f2	-0.03477568
142	0x3d0395aa	0.032125153
143	0x3dde5f3b	0.108580075
144	0x3c8abb1b	0.016934922
145	0xbd4ad53e	-0.04951977
146	0xbd8bdd04	-0.06829265
147	0x3c0c051f	0.008546143
148	0xbda9dcef	-0.08294093
149	0xbdac1b9e	-0.08403705
150	0xbd950893	-0.07277026
151	0xbd1b8a0a	-0.03797344
152	0x3c079597	0.008275411
153	0x3d9dac79	0.07698912
154	0x3d31617b	0.043305855
155	0x3daf6bb9	0.08565468
156	0xbd8fc593	-0.07020106
157	0x3c1a94c2	0.009434881
158	0xbdcb87ae	-0.09937988
159	0x3d835a2a	0.06413682
160	0x3cbee19a	0.023300935
161	0x3ddd7766	0.10813789
162	0xbda2d940	-0.079515934
163	0x3db79edd	0.08965848
164	0x3dc14e2d	0.09438739
165	0x3db92105	0.09039501
166	0x3c82b179	0.015953766
167	0x3dd03364	0.10166052
168	0x3d98ea9b	0.074666224
169	0x3daad511	0.083414204
170	0xbbedfd23	-0.0072628423
171	0xbdafb6b7	-0.08579772
172	0xbab65bbb	-0.0013912836
173	0x3cabc3db	0.020967415
174	0xbd9bf835	-0.07615701
175	0xbd83591c	-0.06413481
176	0xbddb8703	-0.10719111
177	0xbd208834	-0.039192393
178	0x3dc77394	0.09738842
179	0x3c9c9d3b	0.019117942
180	0xbbdfc57d	-0.0068289624
181	0x3b931f36	0.0044898046
182	0x3d8ec67d	0.069714524
183	0xbdca32b2	-0.098729506
184	0xbdb0ac69	-0.08626635
185	0xbd1840f5	-0.037171323
186	0xbd83c740	-0.06434488
187	0x3d6c33bc	0.057666525
188	0x3da1c9ef	0.07899844
189	0xbdde27e7	-0.108474545
190	0xbdc25335	-0.09488527
191	0xbddefa74	-0.10887614
192	0x3d2cc330	0.042178333
193	0x3db84a4d	0.08998547
194	0xbdb18840	-0.08668566
195	0xbd540266	-0.0517601
196	0x3d11ba64	0.035578147
197	0xbd958429	-0.07300598
198	0x3dc28219	0.094974704
199	0x3cd58d03	0.026068216
200	0xbcfef840	-0.031124234
201	0x3bedf386	0.0072616963
202	0x3d0ec5fc	0.03485678
203	0xbd21ef9c	-0.03953515
204	0xbdb16bdd	-0.086631514
205	0x3a450047	0.0007514995
206	0x3b0576ac	0.0020364923
207	0x3b13c0e1	0.0022545385
208	0xbc85a817	-0.016315503
209	0x3d93048a	0.071786
210	0xbcff96a5	-0.031199763
211	0xbc314db8	-0.010821752
212	0x3d3c4d52	0.045972176
213	0xbd901fd7	-0.07037323
214	0x3cf53d05	0.029936323
215	0xbcca84b8	-0.024721488
216	0x3d5baa37	0.053629126
217	0xbd786b77	-0.06064936
218	0x3b87664c	0.004132068
219	0x3c3333d7	0.010937653
220	0xbdb83b2e	-0.08995663
221	0xbda67f07	-0.08129697
222	0x3d2fa0f1	0.042878095
223	0xbd0549d3	-0.032541107
224	0x3d87fc8c	0.06639966
225	0xbde231b8	-0.11044639
226	0xbd62604d	-0.05526762
227	0xbdbc98bd	-0.0920882
228	0x3d36efc6	0.04466226
229	0xbb546c80	-0.0032413304
230	0xbcaad570	-0.020853728
231	0xbc9860e0	-0.018600881
232	0xbdb2fa0d	-0.087391
233	0x3d01df13	0.03170688
234	0x3b36a29e	0.0027867923
235	0xbd9e047a	-0.077156976
236	0x3d2c51d9	0.042070244
237	0xbb1344c7	-0.0022471414
238	0xbddd7377	-0.10813039
239	0x3d7656bc	0.06014131
240	0x3d74f325	0.059802193
241	0xbcac904a	-0.021064896
242	0xbd9e178a	-0.077193335
243	0x3b9317b8	0.0044889115
244	0x3dacc757	0.084364586
245	0x3dd196a4	0.102338105
246	0xbdacd44f	-0.08438932
247	0xbd4ed720	-0.050498128
248	0x3db248c4	0.08705285
249	0x3d5fd59a	0.054647066
250	0x3d8dbccb	0.06920775
251	0xbd63ef90	-0.055648386
252	0x3dc544b9	0.096322484
253	0xbdbc3b30	-0.091909766
254	0xbbb07866	-0.0053854464
255	0x3b18220b	0.002321365

2.weight f4 [256, 128]
0	0x3bdf176c	0.006808212
1	0xbd07b0ee	-0.033127718
2	0x3c7d6106	0.015465027
3	0x3c9ea875	0.019367436
4	0x3d00f635	0.0314848
5	0xbd624594	-0.055242136
6	0x3dac6104	0.08416942
7	0x3b6c6fcf	0.0036077385
8	0xbd2f16ea	-0.042746462
9	0x3d6254d1	0.05525667
10	0xbd3e4b07	-0.04645827
11	0x3d28ff5b	0.04125915
12	0x3d1dcafa	0.03852365
13	0x3b91042b	0.0044255457
14	0x3c8a026a	0.016846854
15	0x3d8483de	0.06470464
16	0xbcd81b0a	-0.02638008
17	0x3c20f6a6	0.009824431
18	0x3d74fb85	0.05981018
19	0x3d7e081a	0.062019445
20	0xbc341eb3	-0.010993647
21	0xbd724bea	-0.05915443
22	0xbcc4677d	-0.023975128
23	0x3c1c8feb	0.009555797
24	0x3d253cc0	0.04034114
25	0xbd898d64	-0.06716421
26	0xbd57ac00	-0.052654266
27	0x3d29d670	0.04146427
28	0xbd275f75	-0.04086252
29	0xbd8bae09	-0.06820304
30	0xbc94e377	-0.01817487
31	0x3c978f91	0.018501075
32	0x3d4ebe56	0.050474487
33	0x3c5e06a8	0.013551392
34	0xbd7fa92c	-0.062417194
35	0x3c3ed39f	0.011647134
36	0x3d91fd7b	0.07128426
37	0xbd9d8923	-0.076921724
38	0x3cf06c74	0.02934859
39	0xbc6116ed	-0.013738376
40	0x3ca5fabb	0.02026116
41	0x3cf072a3	0.029351538
42	0xbd977cee	-0.07396875
43	0xbd974e2d	-0.07387958
44	0x3d853409	0.065040655
45	0x3b0411c8	0.00201522
46	0x3d31e0a0	0.04342711
47	0x3d4a15ad	0.049337078
48	0x3d706011	0.058685366
49	0xbcda22e5	-0.026627967
50	0x3d965622	0.07340647
51	0x3dad8329	0.084722824
52	0xbdaeb05f	-0.08529734
53	0xbd5027b9	-0.050819132
54	0x3d151523	0.03639711
55	0x3a81624c	0.0009871214
56	0xbcb6ad37	-0.022299392
57	0x3c02cc12	0.0079832245
58	0xbd917575	-0.07102481
59	0x3d87d0ce	0.06631623
60	0xbd9782d4	-0.07398
61	0xbca678b5	-0.02032123
62	0x3d5c1e91	0.053740088
63	0x3c32f961	0.010923714
64	0x3d720854	0.059089974
65	0x3d5d6a68	0.054056555
66	0xbd4b1245	-0.04957797
67	0xbce45afe	-0.02787542
68	0xbd9d874f	-0.07691824
69	0xbc53a0b5	-0.0129167335
70	0xbd8db209	-0.06918723
71	0xbd0df5dd	-0.0346583
72	0x3da6a66b	0.081372105
73	0xbccb48e5	-0.024815032
74	0xbc763aae	-0.015028639
75	0xbcda1450	-0.026621014
76	0xbc91c85e	-0.017795738
77	0x3d6ff27d	0.058580864
78	0xbd98bca1	-0.07457853
79	0x3d5b9128	0.05360523
80	0xbbf8c822	-0.007592217
81	0xbd5a58e7	-0.05330744
82	0x3c7dcea0	0.015491158
83	0x3d5a45ff	0.05328941
84	0x3d358fd1	0.044326607
85	0xbcf5c6ab	-0.030001959
86	0xbd3918d6	-0.0451897
87	0xbd13d6bb	-0.036093455
88	0xbb86e5ae	-0.0041167354
89	0xbd9a4eb7	-0.07534545
90	0xbac3b667	-0.001493168
91	0x3c4fc722	0.012681754
92	0xbbf994ee	-0.0076166308
93	0x3c3a4d9a	0.011371041
94	0xbd4729e9	-0.048623953
95	0xbc3d73ec	-0.011563282
96	0x3d97ada6	0.07406168
97	0x3d43d384	0.04780914
98	0x3d0e2513	0.034703325
99	0x3c3bd425	0.011464153
100	0x3d0dbdf2	0.034604974
101	0xbd7e4cc7	-0.06208494
102	0xbdb0198c	-0.08598623
103	0xbd039592	-0.032125063
104	0x3db448b3	0.08802929
105	0xbd6bc549	-0.057561193
106	0xbd82db33	-0.06389465
107	0x3d397dec	0.045286104
108	0xbb9e76b7	-0.0048359293
109	0xbd6c92f7	-0.057757344
110	0x3b55c5a5	0.0032619026
111	0x3d1cea29	0.03830925
112	0xbd0a98f3	-0.03383727
113	0xbcc89c5f	-0.024488626
114	0xbd9eceec	-0.07754311
115	0x3d93ee34	0.07223168
116	0xbcca2baa	-0.024679024
117	0x3dab4ae9	0.08363897
118	0x3d78311d	0.060593713
119	0xbccb1256	-0.024789017
120	0xbd6f5d9e	-0.05843889
121	0xbd8cf7d4	-0.06883207
122	0x3daac0c5	0.08337549
123	0xbd8628fa	-0.065507844
124	0xbd35c3de	-0.044376247
125	0xbd654547	-0.05597427
126	0x3d5975cf	0.053090867
127	0x3d171f9a	0.036895372
128	0xbd88c69e	-0.06678508
129	0xbd7e22d1	-0.062044922
130	0x3daf5e0b	0.08562859
131	0x3cf5ae74	0.029990412
132	0xbbf9ebe8	-0.007626999
133	0x3d8aa580	0.06769848
134	0xbdb4937b	-0.08817192
135	0x3c6ea634	0.014565993
136	0xbc93e690	-0.018054277
137	0x3daf2ffb	0.085540734
138	0xbdafd99b	-0.08586427
139	0x3d8118ab	0.06303533
140	0xbc0bb6a7	-0.008527434
141	0xbd2bba05	-0.04192545
142	0x3db1bf1f	0.086790316
143	0xbd014047	-0.03155544
144	0x3d4d7155	0.05015691
145	0xbd2f5397	-0.042804327
146	0xbd8cb603	-0.068706535
147	0xbc7d2d68	-0.01545272
148	0xbda4b39c	-0.0804207
149	0xbdaf6394	-0.08563915
150	0xbd06a361	-0.032870654
151	0xbb9d7828	-0.0048055835
152	0x3d84c229	0.064823456
153	0xbc8d7fd8	-0.017272875
154	0xbd7bf6b6	-0.06151458
155	0xbc32d075	-0.010913958
156	0xbd3cfda9	-0.046140347
157	0x3d535f04	0.051604286
158	0xbd83aa77	-0.06428998
159	0xbc41fe3b	-0.011840398
160	0xbca5ee0c	-0.020255111
161	0x3b355dde	0.0027674357
162	0xbce972b8	-0.028497085
163	0x3d903ac7	0.07042461
164	0xbb39ab30	-0.0028330795
165	0x3dacb59d	0.084330775
166	0xbd18ee34	-0.037336543
167	0x3d7ad8aa	0.061241783
168	0x3d248dee	0.040174417
169	0x3b5b33fe	0.0033447738
170	0x3c868ed1	0.016425522
171	0xbd4dccea	-0.05024425
172	0x3da77d97	0.08178251
173	0xbd71e609	-0.05905727
174	0x3c4f27e7	0.012643791
175	0xbdb0b696	-0.086285755
176	0x3d5c601e	0.053802602
177	0x3d12443e	0.035709612
178	0x3d595586	0.053060077
179	0xbc633e40	-0.013869822
180	0x3d02aeef	0.03190511
181	0xbda3131d	-0.0796263
182	0xbd65cd9d	-0.05610429
183	0x3d1410bf	0.036148783
184	0x3d8526f0	0.06501567
185	0x3d87542a	0.0660785
186	0x3d20048d	0.03906684
187	0xbdaf856e	-0.085703716
188	0xbd3967a0	-0.04526484
189	0x3db4938b	0.08817204
190	0xbb342006	-0.0027484908
191	0x3d5551b1	0.05207986
192	0x3ce3363a	0.027735818
193	0xbd68f24d	-0.0568717
194	0x3d56c289	0.052431617
195	0xbd2422cb	-0.040072244
196	0x3cf4eef5	0.0298991
197	0x3ca40f89	0.020026939
198	0x3cfeddfb	0.031111708
199	0xbdac7b73	-0.084219836
200	0xbd945887	-0.07243448
201	0x3d15e052	0.03659088
202	0x3d184e08	0.03718379
203	0xbd871618	-0.06596011
204	0xbd39a990	-0.045327723
205	0x3d892304	0.06696132
206	0xbd8e1875	-0.069382586
207	0xbd5261ba	-0.05136273
208	0x3d3493d6	0.0440863
209	0x3b0b647f	0.0021269617
210	0x3c5dc0e0	0.0135347545
211	0xba0476b8	-0.0005053091
212	0xbc9e3a42	-0.019314889
213	0xbc94d7d7	-0.018169327
214	0xbc4e5683	-0.012593868
215	0xbd1276a5	-0.03575768
216	0x3c464853	0.012102204
217	0xbd91726b	-0.071019016
218	0xbb1044b8	-0.0022013616
219	0x3d7a90ac	0.061173126
220	0xbda5cc48	-0.08095604
221	0x3b14a5d6	0.0022681854
222	0x3d323f01	0.043517116
223	0xbbb9ae5e	-0.005666538
224	0x3d9cd7d1	0.07658351
225	0xbd31609b	-0.04330502
226	0x3d9a67c1	0.07539321
227	0xbcbe99fe	-0.023266789
228	0xbd19cb84	-0.037547603
229	0xbd8664c8	-0.06562191
230	0x3ba1c426	0.004936713
231	0xbd803629	-0.0626033
232	0xbd4cebf1	-0.0500297
233	0x3c2fa929	0.010721483
234	0x3d3ceccf	0.046124276
235	0x3cb71610	0.022349387
236	0x3d457c91	0.0482145
237	0x3d717154	0.05894597
238	0xbdadbee8	-0.08483678
239	0x3d64f834	0.055900767
240	0x3b50fdd2	0.003188957
241	0xbc2e1dab	-0.010627191
242	0x3d8ec187	0.06970506
243	0x3ca15f0e	0.019698646
244	0xbd700c62	-0.05860556
245	0xbd3c7b03	-0.04601575
246	0x3d83fc65	0.06444625
247	0x3d9d0dac	0.07668623
248	0xbda7f8be	-0.08201741
249	0x3cb82992	0.02248076
250	0x3d18d553	0.037312817
251	0x3d1c2e9d	0.03813039
252	0x3ce927ec	0.028461419
253	0xbcba1b5a	-0.02271812
254	0x3c3e5852	0.011617737
255	0x3d2c666c	0.042089865

4.weight f4 [10, 256]
0	0x3d2755ce	0.040853314
1	0xbc389608	-0.011266239
2	0xbd4fb902	-0.050713547
3	0x3d3c1132	0.045914836
4	0x3ca909d8	0.020634577
5	0xbd4574f0	-0.048207223
6	0x3d2b6a7c	0.0418496
7	0x3c2b4808	0.010454185
8	0xbd4c9bce	-0.049953274
9	0x3ce428f8	0.027851567
10	0xbd642d38	-0.055707186
11	0xbcddffac	-0.027099453
12	0xbd470b20	-0.048594594
13	0x3cbc3ab0	0.022977203
14	0xbd07dc70	-0.03316921
15	0xbd41a72a	-0.04727856
16	0x3d04793e	0.032342188
17	0x3d4fcdce	0.05073338
18	0xbd64d668	-0.055868536
19	0x3bc95e30	0.006145261
20	0xbb8a4ff0	-0.004220955
21	0xbd72774c	-0.0591958
22	0xbd54a02c	-0.051910564
23	0xbd053a4c	-0.0325263
24	0x3cc54654	0.024081387
25	0x3c363398	0.011120699
26	0x3d5603ae	0.052249603
27	0x3d67989c	0.056542024
28	0x3c1cd380	0.00957191
29	0x3d59ae00	0.053144455
30	0xbc033f58	-0.008010708
31	0xbc16cae0	-0.009203643
32	0x3d741b2a	0.05959622
33	0xbc9e1c78	-0.019300684
34	0xbd39bbc6	-0.04534509
35	0x3d3eed26	0.04661288
36	0xbc022010	-0.007942215
37	0xbd7d529e	-0.061846368
38	0xbcd11b88	-0.025525823
39	0x3d787646	0.06065967
40	0xbccc0768	-0.024905875
41	0x3d506c14	0.05088432
42	0x3ca6a3b8	0.020341739
43	0x3d5ebd90	0.05438
44	0x3cbc9eb8	0.023024902
45	0x3cbf7ee8	0.023375943
46	0xbd21c9c6	-0.039499067
47	0xbc6393d0	-0.013890222
48	0xbd764fae	-0.060134582
49	0x3c2f6d20	0.01070717
50	0xbd305688	-0.043051273
51	0xbc1941a8	-0.009354033
52	0x3c8e53e8	0.017373994
53	0xbd0c6b74	-0.034282163
54	0x3d66e13a	0.056367137
55	0x3d2edb88	0.04268983
56	0xbc8d3ed8	-0.01724188
57	0x3d1b86c4	0.03797032
58	0xbce14d98	-0.02750282
59	0x3cd3034c	0.025758408
60	0xbce1836c	-0.027528487
61	0x3d776d5c	0.060407028
62	0x3cdaab40	0.026692986
63	0xbd611674	-0.054953054
64	0xbcb3335c	-0.021875076
65	0x3ce52894	0.02797345
66	0xbd15af7c	-0.036544308
67	0x3d3bfb76	0.04589411
68	0xbd7bf058	-0.061508507
69	0xbc033fa0	-0.008010775
70	0xba862e40	-0.0010237172
71	0xbd758b7e	-0.059947483
72	0xbcb5437c	-0.022126906
73	0x3d724f7e	0.05915784
74	0x3d09f3c8	0.033679754
75	0x3b030800	0.0019993782
76	0x3c81611c	0.015793376
77	0xbcf36e74	-0.029715754
78	0x3d07b032	0.033127017
79	0x3d1d2742	0.038367517
80	0xbc33e600	-0.010980129
81	0xbd7b3666	-0.061331175
82	0x3bdcb5b0	0.006735526
83	0x3d4295aa	0.047506012
84	0x3bffd4a0	0.0078073293
85	0xbd0926c0	-0.03348422
86	0x3bafc820	0.005364433
87	0xbd328bea	-0.043590464
88	0xbd3c8df0	-0.0460338
89	0xbd600b0c	-0.054698035
90	0x3d0966cc	0.0335453
91	0x3d32aa38	0.043619365
92	0xbc3658c8	-0.011129566
93	0x3bcf4370	0.006325178
94	0xbca7a7b8	-0.020465717
95	0xbd461704	-0.048361793
96	0x3d410b3e	0.047129862
97	0xbc2013a8	-0.009770311
98	0xbcb8eab0	-0.022572845
99	0xbb7b0060	-0.0038299784
100	0x3c9231b8	0.017845973
101	0x3d01c10a	0.031678237
102	0xbd7b6cfa	-0.061383225
103	0xbd74f664	-0.05980529
104	0xbbf5d860	-0.0075026006
105	0x3c9ccd84	0.019140966
106	0xbd5d3d34	-0.054013446
107	0xbd2387ac	-0.03992431
108	0xbd0a1a36	-0.033716403
109	0x3c2d0828	0.010561027
110	0x3d656cb4	0.05601187
111	0xbca914ac	-0.02063974
112	0x3d15e138	0.03659174
113	0x3ca99278	0.020699725
114	0x3d3ab61e	0.045583837
115	0xbd041c68	-0.032253653
116	0xbcb21fc0	-0.021743655
117	0x3caf0778	0.021365866
118	0x3c7b77d8	0.015348397
119	0xbd1ce966	-0.038308524
120	0x3d521f0c	0.05129914
121	0x3c5d0358	0.013489567
122	0xbc9819ec	-0.018567048
123	0xbc31afc0	-0.010845125
124	0xbce6c3ac	-0.028169475
125	0x3d4845ac	0.04889457
126	0x3d73468e	0.059393458
127	0x3d5fd91c	0.05465041
128	0x3c195900	0.009359598
129	0xbd044a9e	-0.032297723
130	0xbc186628	-0.0093017
131	0xbb5f35a0	-0.0034059063
132	0x3d173eb4	0.036925033
133	0x3c5aa680	0.013345361
134	0xbd3b32bc	-0.04570268
135	0x3cccc778	0.024997458
136	0x3d74c400	0.059757233
137	0x3caaf170	0.02086708
138	0x3d2c8368	0.042117506
139	0xbd51e902	-0.051247604
140	0xbcc5a794	-0.024127759
141	0xbd54787c	-0.051872715
142	0x3ca0777c	0.019588225
143	0x3c71c750	0.014756992
144	0xbd4a4ab6	-0.049387656
145	0x3d54c76e	0.051948003
146	0x3c3a0d70	0.011355743
147	0x3c69cf20	0.014270574
148	0xbd786e1c	-0.060651883
149	0xbc5d4b10	-0.013506666
150	0xbd71c616	-0.0590268
151	0xbca9a6ec	-0.020709477
152	0x3d7345ee	0.059392862
153	0xbd2215e6	-0.039571665
154	0x3d313582	0.04326392
155	0x3d7ea898	0.062172502
156	0xbb8fda50	-0.0043900385
157	0x3cecfef8	0.028930172
158	0x3b4c8a80	0.0031210482
159	0x3d6fd496	0.058552347
160	0xbd7fb946	-0.06243255
161	0xbc7b2f38	-0.015331082
162	0xbc390538	-0.011292748
163	0x3a920680	0.0011140853
164	0x3d104c72	0.035229154
165	0x3c480f28	0.012210645
166	0x3b79b7e0	0.0038103983
167	0x3d36e468	0.04465142
168	0xbd79694e	-0.060891442
169	0x3ad81a00	0.0016487241
170	0xbca14790	-0.019687444
171	0x3d625ae0	0.055262446
172	0xbcbbde24	-0.022933073
173	0x3d28a6fa	0.041174866
174	0xbd3e7ed8	-0.046507686
175	0xbd1a27f6	-0.037635766
176	0xbb183840	-0.0023226887
177	0x3d5c7b16	0.05382832
178	0x3d4fa184	0.050691143
179	0xbd63c732	-0.05560989
180	0xbd5d5850	-0.0540393
181	0x3c034598	0.008012198
182	0x3d6eee3c	0.058332667
183	0xbb07a9a0	-0.002070047
184	0xbd5d2d06	-0.053998016
185	0x3ae3f880	0.0017392784
186	0xbd624434	-0.055240825
187	0x3b58c7a0	0.003307797
188	0xba283500	-0.0006416589
189	0x3b9745e0	0.004616484
190	0x3d3555d6	0.044271313
191	0xbd79aaea	-0.060954012
192	0x3c9898a4	0.018627472
193	0x3d03dace	0.03219109
194	0xbcb96628	-0.02263172
195	0x3cebb8e4	0.028774686
196	0xbc58d060	-0.013233274
197	0xbd572adc	-0.05253111
198	0x3c3ce9b8	0.011530332
199	0xbd3d1644	-0.046163812
200	0xbb38da40	-0.002820626
201	0xbbb3a2b0	-0.0054820403
202	0x3bc3cbb0	0.005975209
203	0x3d210bea	0.039318003
204	0xbc90ca00	-0.017674446
205	0xbc8cce8c	-0.017188333
206	0xbc438378	-0.0119332
207	0x3d571ee2	0.052519687
208	0x3cd6e918	0.026234195
209	0xbaad40c0	-0.001321815
210	0x3d5c80a2	0.05383361
211	0x3d3ef4a4	0.046620026
212	0x3d69b1ea	0.057054438
213	0xbcdaa158	-0.026688263
214	0x3d3c7cfe	0.04601764
215	0xbd685100	-0.056717873
216	0x3d0c9004	0.03431703
217	0xbd5a695c	-0.053323135
218	0xbd2dc888	-0.04242757
219	0x3d0d259e	0.034459703
220	0xbd30bcde	-0.043148868
221	0xbd19acce	-0.037518315
222	0x3d5998f2	0.053124376
223	0x3cbe2578	0.023211226
224	0x3c525ad8	0.012839042
225	0x3cc8699c	0.024464421
226	0xbbe908c0	-0.007111639
227	0x3cc19cec	0.023634396
228	0xbcda9ba8	-0.02668555
229	0x3bceaac0	0.006306976
230	0xbd39f880	-0.045403004
231	0xbd54ed14	-0.051983908
232	0x3d297658	0.041372627
233	0x3d59e6e4	0.05319871
234	0xbd71c2ea	-0.059023775
235	0xbd0193da	-0.031635143
236	0xbd793d90	-0.060849726
237	0xbb83fd50	-0.004028
238	0x3c91cfac	0.017799221
239	0x3b308a80	0.0026938021
240	0x3ba60820	0.0050668865
241	0xbd2f24fe	-0.042759888
242	0xbd6bf9a2	-0.057611115
243	0x3be8a100	0.007099271
244	0x3d609dd6	0.054838024
245	0xbd70aa4c	-0.058756158
246	0xb95b7000	-0.00020927191
247	0x3c561758	0.013067089
248	0xbd713da6	-0.058896683
249	0x3c5c3880	0.013441205
250	0x3d1d2436	0.03836461
251	0x3d278c12	0.040905066
252	0x3d34447a	0.044010617
253	0xbcf04a38	-0.029332265
254	0xbd12e9c2	-0.03586746
255	0x3d4f3f58	0.05059752
